snakeAI/model/model.pth (torch, 16799 bytes, 4 tensors)

linear1.weight f4 [256, 11]
0	0x3f2051bb	0.6262471
1	0x3e736e99	0.23772658
2	0xbf13f501	-0.5779572
3	0xbe3d0ef9	-0.18462743
4	0x3e0adc42	0.13560584
5	0xbd3a1181	-0.04542685
6	0xbe50f31b	-0.20405237
7	0xbda7a0ac	-0.081849426
8	0xbeb9c138	-0.36280227
9	0x3e02002b	0.12695377
10	0xbed67ee9	-0.418937
11	0x3e17c28b	0.14820306
12	0xbf579670	-0.84213924
13	0x3f03680e	0.5133065
14	0x3df27397	0.11838453
15	0x3d0b6189	0.034028564
16	0x3e11486d	0.14187784
17	0x3dbc2fb6	0.09188788
18	0xbc951bd7	-0.018201752
19	0xbe09916b	-0.13434379
20	0x3c70c47e	0.014695285
21	0xbe594e9b	-0.21221392
22	0x3e802e63	0.2503539
23	0x3e9e9974	0.3097645
24	0x3d8cb8a1	0.06871153
25	0xbe6d3f10	-0.23168588
26	0xbe4f8c36	-0.2026833
27	0x3d8dc26b	0.06921848
28	0xbea5a431	-0.3235183
29	0xbd8e1453	-0.0693747
30	0xbe4d7a2b	-0.20066135
31	0xbe887390	-0.26650667
32	0x3d113f36	0.035460673
33	0xbe33abb1	-0.17545964
34	0x3eaeadb9	0.34116915
35	0x3ee64b6c	0.44979417
36	0x3e19441c	0.14967388
37	0x3df78339	0.120855756
38	0xbd4d07ba	-0.050056197
39	0xbe598bec	-0.21244782
40	0x3e4c3f2b	0.19945972
41	0x3e87db9e	0.26534742
42	0xbaa3be7a	-0.001249268
43	0x3e30f45c	0.17280716
44	0xbe728391	-0.23683001
45	0xbee2f47b	-0.4432715
46	0x3cff369f	0.031153975
47	0xbe09f095	-0.13470681
48	0xbebd184a	-0.36932594
49	0x3d7798dd	0.060448516
50	0xbdd36203	-0.103214286
51	0x3eb79fa9	0.35864
52	0xbe2f659e	-0.17128608
53	0xbd95ccd0	-0.073144555
54	0xbe436d0d	-0.19084568
55	0x3cb72efa	0.022361267
56	0x3ea87a26	0.32905692
57	0x3eb787ff	0.35845944
58	0x3d6e45cf	0.058172043
59	0xbe7e1b69	-0.24815144
60	0xbeba42b3	-0.36379012
61	0xbe9f1c81	-0.31076434
62	0xbeba3e7a	-0.3637579
63	0x3e836535	0.25663152
64	0x3e2a97f3	0.16659527
65	0x3e06ee19	0.13176765
66	0x3ee03dc6	0.4379713
67	0x3e3dd8ee	0.18539783
68	0xbf4d8e27	-0.8029503
69	0xbcaed9f8	-0.02134417
70	0xbe9ffa5a	-0.3124569
71	0x3e4ebf88	0.20190251
72	0xbee729cd	-0.4514908
73	0x3d390632	0.045171924
74	0xbe3f6ce0	-0.18693876
75	0xbe7f2aef	-0.24918722
76	0x3eb308ab	0.3496755
77	0x3bd5af00	0.0065211058
78	0x39f4ec00	0.0004671514
79	0xbe66a178	-0.22522533
80	0xbe2be4b4	-0.16786462
81	0xbe4f2318	-0.20228231
82	0xbd3c88b8	-0.046028823
83	0xbdb44bd4	-0.088035256
84	0xbdc56b80	-0.096396446
85	0xbd006b78	-0.03135249
86	0x3e4e7e68	0.20165408
87	0xbe4658d9	-0.1936983
88	0xbe7f38f4	-0.2492407
89	0x3d8d0529	0.0688575
90	0xbdd67147	-0.10470825
91	0xbf0c79f0	-0.5487356
92	0xbe81e066	-0.25366515
93	0x3e9ce199	0.30640867
94	0x3e873f01	0.26415256
95	0x3f0ab1ce	0.5417756
96	0x3e58069f	0.21096276
97	0xbeaee63e	-0.34160036
98	0xbf0d1412	-0.5510875
99	0xbe50380f	-0.20333885
100	0xbe5a9b22	-0.21348241
101	0x3e89d0fb	0.26917252
102	0x3e1b6269	0.15174259
103	0xbe75b289	-0.23993887
104	0x3d0f1b18	0.034937948
105	0xbd726078	-0.05917403
106	0xbee229c6	-0.44172496
107	0xbec2c7a5	-0.38042942
108	0x3c0588e7	0.008150316
109	0x3ce1c460	0.02755946
110	0xbf17a541	-0.5923653
111	0x3e01ee58	0.12688577
112	0x3e605298	0.21906507
113	0x3e0038cb	0.12521665
114	0xbea39415	-0.31948915
115	0x3e11fc77	0.14256464
116	0x3e03e755	0.12881215
117	0x3ce4a7e3	0.027912086
118	0xbeffeda6	-0.49986
119	0x3df133ff	0.117774956
120	0xbe062a45	-0.13102062
121	0xbf22c74e	-0.63585365
122	0x3d882f78	0.06649679
123	0x3d1bda7b	0.038050156
124	0xbe8f1b59	-0.27950552
125	0x3cf7424f	0.030182986
126	0x3ef6e8ff	0.48224637
127	0x3ea719db	0.32636914
128	0x3ee12097	0.43970177
129	0x3dec6221	0.11542154
130	0xbed88032	-0.42285305
131	0xbe05fbb8	-0.13084304
132	0xbe5e42a1	-0.21705104
133	0x3f33dc49	0.70258003
134	0xbf2a288a	-0.6646811
135	0x3e6301db	0.22168677
136	0x3d0ba01f	0.03408825
137	0x3e21860e	0.15773794
138	0x3e3bdefc	0.1834678
139	0xbe67ffac	-0.22656125
140	0xbe2e2d0b	-0.1700937
141	0xbe8c9631	-0.27458337
142	0xbe0780cf	-0.1323273
143	0x3e32b130	0.17450404
144	0xbf2c242c	-0.67242694
145	0x3db0413e	0.08606194
146	0xbe3ce2e6	-0.1844593
147	0xbe051c40	-0.12999058
148	0xbe483632	-0.19551924
149	0xbf0c59d8	-0.5482459
150	0xbd926fdf	-0.07150244
151	0x3b65fbad	0.0035092637
152	0xbd2e5909	-0.04256538
153	0x3e05d4a6	0.130694
154	0x3ec6f926	0.3886196
155	0xbe0c55f9	-0.13704671
156	0xbe2171c1	-0.1576605
157	0x3d2fc433	0.04291172
158	0xbd1856a7	-0.037192013
159	0xbe757241	-0.23969366
160	0xbecd65c3	-0.401167
161	0xbe94e4e0	-0.29080868
162	0xbeecf3a8	-0.46279645
163	0x3dcdd311	0.10050023
164	0xbe37c761	-0.17947151
165	0x3e8ade66	0.27122802
166	0xbf4198e6	-0.7562393
167	0x3ea9bdff	0.33152768
168	0xbe200472	-0.15626696
169	0xbe4c1fad	-0.19933958
170	0xbe3228f4	-0.17398435
171	0xbd50f459	-0.051014278
172	0xbe03c183	-0.12866788
173	0xbdc3b37a	-0.09555717
174	0xbe97b702	-0.2963181
175	0xbdee4b9e	-0.116355166
176	0xbc44c70e	-0.012010349
177	0x3dd045a8	0.10169536
178	0xbed431db	-0.41444287
179	0x3e316f6d	0.17327662
180	0xbea2d68a	-0.31804305
181	0x3e2ac0a4	0.16675049
182	0xbe26ffea	-0.16308561
183	0xbe66cccf	-0.22539066
184	0xbe884124	-0.26612198
185	0xbe81a7cc	-0.2532333
186	0x3e8ef199	0.279187
187	0x3eaf48f0	0.34235334
188	0xbef7f32a	-0.48427707
189	0x3d185e7e	0.03719949
190	0x3f0ce260	0.5503292
191	0xbe3fe6b8	-0.18740356
192	0x3eb19601	0.34684756
193	0xbee414f1	-0.44547227
194	0xbea8123b	-0.3282641
195	0x3ebd0ce5	0.369239
196	0xbe734332	-0.23756102
197	0x3f3de913	0.7418377
198	0x3d5ea1e5	0.054353613
199	0x3f069b44	0.52580667
200	0x3e7dec76	0.24797234
201	0xbe45eb35	-0.19328006
202	0xbec56568	-0.3855393
203	0x3e20244e	0.15638849
204	0xbe443af9	-0.19163121
205	0xbdd53857	-0.104111366
206	0xbe1005ad	-0.14064665
207	0x3d274c6a	0.04084436
208	0x3e73c072	0.23803881
209	0xbda80024	-0.08203152
210	0xbf079bd9	-0.5297218
211	0xbedda07f	-0.4328651
212	0x3d1c8995	0.038217146
213	0x3d8ad58f	0.06779014
214	0x3eef551e	0.46744627
215	0xbf1a7306	-0.6033176
216	0xbf16623d	-0.5874365
217	0xbf336211	-0.7007151
218	0x3f15e00e	0.58545005
219	0xbebfc2ea	-0.37453395
220	0x3da80190	0.08203423
221	0x3ebea1f2	0.3723293
222	0x3ed7e47f	0.42166516
223	0xbde283b6	-0.11060278
224	0xbf070b4f	-0.5275163
225	0xbdf44913	-0.11928
226	0xbefd3161	-0.49451736
227	0x3d9655b7	0.073405676
228	0x3efefdd2	0.49803025
229	0x3dca0b07	0.098653845
230	0x3eeff4d2	0.4686647
231	0xbdd76574	-0.105173975
232	0x3e9e23ef	0.3088679
233	0xbed46a5d	-0.414874
234	0x3e69bb14	0.22825271
235	0x3c5a7b17	0.013335011
236	0xbe114b67	-0.1418892
237	0x3ebf8e2f	0.37413165
238	0x3e334050	0.17505002
239	0x3de402e7	0.11133366
240	0xbf04edef	-0.5192556
241	0xbd4fe340	-0.050753832
242	0x3d5e8470	0.05432552
243	0x3f024ac3	0.5089533
244	0x3cac7c98	0.021055505
245	0xbe40d170	-0.18829894
246	0x3ce10c4e	0.027471688
247	0x3d1e5d43	0.03866316
248	0xbe9ac0f2	-0.3022533
249	0x3ea903d5	0.33010736
250	0x3e25c0c6	0.16186818
251	0x3e83cb38	0.2574098
252	0x3e95c009	0.29248074
253	0xbecbd82f	-0.39813372
254	0xbce2de39	-0.027693855
255	0x3dde790d	0.10862932

linear1.bias f4 [256]
0	0xbc9d1c73	-0.019178605
1	0xbcb7b2cb	-0.022424122
2	0xbe835fa8	-0.25658917
3	0xbe9b7f39	-0.303705
4	0xbec60679	-0.38676813
5	0xbdb84af0	-0.08998668
6	0xbdaba01e	-0.08380149
7	0xbe483fd1	-0.19555594
8	0xbd7b065c	-0.06128536
9	0xbeb26ce8	-0.34848714
10	0x3e863668	0.26213384
11	0xbe3be19b	-0.1834778
12	0x3ee22862	0.44171435
13	0xbe6fef20	-0.23431063
14	0x3d5d4799	0.05402336
15	0x3dca8c18	0.09890002
16	0xbdd02983	-0.10164168
17	0xbe2f3fe1	-0.17114212
18	0xbe8e00b8	-0.27734923
19	0x3c907a25	0.017636368
20	0xbe1e181e	-0.15438887
21	0x3e8852cf	0.26625678
22	0xbea0fcd2	-0.31442887
23	0xbe264cb7	-0.16240202
24	0xbeac8c2e	-0.337007
25	0x3deb1e0c	0.1148034
26	0x3d8c0d2a	0.06838448
27	0x3dbb37f4	0.091415316
28	0xbdda750c	-0.10666856
29	0xbedbe002	-0.42944342
30	0xbd77c789	-0.060493026
31	0xbd8a8270	-0.0676316
32	0xbe17118c	-0.14752787
33	0x3d83b047	0.064301066
34	0xbefd6221	-0.4948893
35	0xbe5e0bc6	-0.21684179
36	0x3f5174ac	0.8181865
37	0xbe2736b1	-0.16329457
38	0xbe3bc7a8	-0.18337882
39	0x3e4eb341	0.20185567
40	0xbebd7e21	-0.3701029
41	0x3c9b663d	0.01896965
42	0xbde9721e	-0.11398719
43	0x3ed525eb	0.41630492
44	0xbe9c13a9	-0.3048375
45	0xbdef126e	-0.11673437
46	0xbd36885f	-0.044563647
47	0x3e8d5e2a	0.27610904
48	0xbdc96e10	-0.09835446
49	0xbec2258e	-0.37919277
50	0xbee51c9c	-0.4474839
51	0xbefad91c	-0.48993766
52	0x3e83ec05	0.25766006
53	0xbeb2cf21	-0.34923652
54	0x3c905737	0.017619712
55	0xbec03f77	-0.3754842
56	0xbe9b4ab3	-0.30330428
57	0xbf0bb7b5	-0.5457719
58	0x3e344c51	0.17607237
59	0xbe39b0d9	-0.18133868
60	0x3d837496	0.064187214
61	0xbda76da0	-0.08175206
62	0x3e484563	0.19557719
63	0xbe57fc1a	-0.21092263
64	0x3eafbb02	0.34322363
65	0x3ed7b014	0.42126524
66	0xbdafc0bd	-0.08581684
67	0xbe596c6f	-0.2123277
68	0xbeec8038	-0.46191573
69	0xbe14749b	-0.14497606
70	0x3d066752	0.032813378
71	0xbea13abb	-0.3149012
72	0xbe3c56e5	-0.18392523
73	0xbe70ddda	-0.2352213
74	0xbeefcac3	-0.46834382
75	0xbf088311	-0.5332499
76	0xbe70d44e	-0.23518488
77	0xbe61e2f1	-0.22059228
78	0xbc819ee2	-0.015822832
79	0xbdc069a5	-0.0939515
80	0xbefdba8c	-0.49556386
81	0xbe62b216	-0.22138247
82	0xbe967e2a	-0.2939313
83	0xbeb11f5e	-0.34594244
84	0x3e651076	0.2236956
85	0xbe584e93	-0.21123724
86	0xbe8538f3	-0.2602001
87	0xbe3ddef6	-0.18542084
88	0x3e6c1100	0.2305336
89	0xbe462bbb	-0.1935262
90	0xbca6c14a	-0.02035584
91	0xbe127099	-0.14300765
92	0x3ee5bea6	0.44872016
93	0x3dcf6a2f	0.10127675
94	0x3e8013cd	0.25015107
95	0xbeb97ede	-0.36229604
96	0xbd3d3ad7	-0.046198692
97	0xbd552bae	-0.05204361
98	0xbc4e337f	-0.01258552
99	0xbdf9a637	-0.12189906
100	0xbee597aa	-0.44842273
101	0xbe50839d	-0.20362706
102	0xbe9c5adf	-0.3053808
103	0xbe296c51	-0.16545226
104	0xbbee0a12	-0.007264384
105	0x3d9a0319	0.07520122
106	0x3e218523	0.15773444
107	0xbe403005	-0.18768318
108	0x3d787aeb	0.0606641
109	0xbdc1c466	-0.09461288
110	0xbe0a2b71	-0.13493134
111	0xbe4a246e	-0.1974046
112	0xbe44b5c1	-0.19209959
113	0xbe7a661b	-0.24453013
114	0x3e71a877	0.2359942
115	0x3e90b9b3	0.28266677
116	0xbc97298f	-0.018452434
117	0xbee380ca	-0.44434196
118	0x3e36744e	0.17817804
119	0x3ba8460d	0.005135304
120	0xbd30744d	-0.043079663
121	0xbe01b067	-0.12664948
122	0xbe1023b2	-0.14076117
123	0xbee9d7ff	-0.45672604
124	0xbecf32c7	-0.40468428
125	0xbe6cbc8e	-0.23118803
126	0xbd863105	-0.065523185
127	0xbe6b2031	-0.22961499
128	0xbe9332f4	-0.28749812
129	0xbd5f04e2	-0.054448016
130	0xbea394d0	-0.31949472
131	0xbe1e47ab	-0.15457027
132	0xbdefd26b	-0.11710056
133	0xbec0b427	-0.37637445
134	0xbee0cf4e	-0.4390816
135	0xbe902233	-0.28151092
136	0x3e8c1b64	0.27364647
137	0xbde60523	-0.112314485
138	0xbe5b38e5	-0.21408422
139	0xbea46f56	-0.32116193
140	0x3e9b3e07	0.3032076
141	0xbe40d328	-0.1883055
142	0xbf08c522	-0.534258
143	0xbdafccda	-0.08583994
144	0xbef97cb9	-0.48727968
145	0xbd6fc031	-0.058532897
146	0x3e8a90ba	0.27063543
147	0xbe51a981	-0.20474817
148	0x3eb73134	0.35779727
149	0xbd862d6b	-0.065516315
150	0xbeb4934a	-0.35268623
151	0xbdff5a96	-0.1246845
152	0xbe4cf897	-0.20016704
153	0xbeb08eac	-0.3448385
154	0xbe8caba8	-0.27474713
155	0x3f2a4e02	0.6652528
156	0x3e8b176f	0.27166316
157	0xbe93426e	-0.2876162
158	0xbe0be75e	-0.13662478
159	0xbf1816c1	-0.5940972
160	0x3e78411a	0.24243584
161	0xbe1d99ba	-0.15390673
162	0x3da19816	0.07890336
163	0xbda7190b	-0.081590734
164	0xbe85eb18	-0.26155925
165	0xbed8d382	-0.42348868
166	0xbeb828ac	-0.3596853
167	0xbe536c4f	-0.20646785
168	0xbee4cd09	-0.4468768
169	0xbe606887	-0.21914874
170	0xbe97effc	-0.2967528
171	0xbe9c9d17	-0.305886
172	0xbdf5a1a7	-0.11993723
173	0xbeb11f30	-0.34594107
174	0xbc763c3d	-0.01502901
175	0x3eb22801	0.34796146
176	0x3e28ebf8	0.16496265
177	0xbe89906e	-0.26868004
178	0x3eb4cd4f	0.35312888
179	0xbe550d04	-0.20805746
180	0x3d7411a0	0.05958712
181	0xbec2b980	-0.3803215
182	0x3edaf62f	0.42765948
183	0xbdf0f930	-0.11766279
184	0xbec38811	-0.38189748
185	0xbe53a78f	-0.20669387
186	0xbe1341d1	-0.14380576
187	0x3e69efb3	0.22845344
188	0x3f4d45ec	0.8018482
189	0x3d0d8097	0.03454646
190	0x3dce61c7	0.10077243
191	0x3f1e6e04	0.6188662
192	0xbec19fc5	-0.37817207
193	0xbe1161d4	-0.14197475
194	0xbe883954	-0.26606238
195	0x3baacd4f	0.005212463
196	0x3f0aadb3	0.54171294
197	0x3e466b17	0.19376789
198	0x3eac845f	0.3369474
199	0x3e89e232	0.26930386
200	0x3ea9d2fa	0.33168775
201	0x399305fc	0.00028042484
202	0xbe4c32ff	-0.19941328
203	0xbe947526	-0.28995627
204	0x3c9c5d33	0.01908741
205	0xbe3559b6	-0.17710003
206	0xbe775fed	-0.24157687
207	0x3dfe26c5	0.124097385
208	0x3ec2f098	0.38074183
209	0xbe4929f2	-0.19644907
210	0x3e0ec044	0.13940531
211	0xbea86a9e	-0.32893842
212	0xbc996a43	-0.018727427
213	0x3e64b650	0.22335172
214	0xbe7af0f6	-0.24505982
215	0xbe18bc30	-0.14915538
216	0xbea921ee	-0.330337
217	0xbea506b4	-0.32231677
218	0x3f023a21	0.5086995
219	0xbeb45b1e	-0.35225767
220	0xbc4a051d	-0.012330321
221	0xbe85a67b	-0.26103577
222	0x3de7422d	0.11291919
223	0x3d47ab32	0.04874725
224	0x3c44c890	0.012010708
225	0xbeef41b0	-0.46729803
226	0x3e386990	0.18009019
227	0xbd9a005f	-0.07519602
228	0x3f19d649	0.600926
229	0xbe980929	-0.2969449
230	0xbeab996e	-0.33515495
231	0xbe6b8900	-0.2300148
232	0xbec8d336	-0.3922364
233	0xbc9e30ef	-0.019310443
234	0xbe3cfa54	-0.18454868
235	0x3ecaff0d	0.39647713
236	0xbe22ed34	-0.15910798
237	0xbd84bd53	-0.06481423
238	0xbd8cf3ee	-0.068824634
239	0x3e341d9c	0.1758942
240	0xbe9bda4c	-0.30439985
241	0xbd29fa7c	-0.041498646
242	0xbe12a63e	-0.14321229
243	0xbe3fc06d	-0.18725748
244	0xbed84896	-0.4224288
245	0x3eccab22	0.39974314
246	0xbd9295eb	-0.07157501
247	0xbd762214	-0.060091093
248	0xbecda911	-0.4016805
249	0xbe4a3b77	-0.19749247
250	0xbed3af07	-0.41344473
251	0xbdd29a09	-0.10283286
252	0xbee1ee85	-0.44127288
253	0xbebb5e67	-0.3659546
254	0x3e0c931e	0.13727996
255	0xbd883c64	-0.066521436

linear2.weight f4 [3, 256]
0	0x3e87ae99	0.26500395
1	0x3b52c260	0.0032159314
2	0xbc87c7a8	-0.016574696
3	0xbe34bfa3	-0.17651229
4	0x3d1e0148	0.03857544
5	0xbd861a13	-0.06547942
6	0x3e09ce11	0.13457514
7	0x3d551420	0.052021146
8	0x3ec694b1	0.38785318
9	0xbed15472	-0.4088474
10	0x3cba77b6	0.02276216
11	0x3e936134	0.28785098
12	0x3e83b81b	0.257264
13	0x3c5b6c1d	0.013392475
14	0x3db277cd	0.087142564
15	0x3d3f0f6a	0.04664556
16	0x3d52deaa	0.05148188
17	0xbda15556	-0.07877605
18	0xbdbca212	-0.092106
19	0x3ec69661	0.38786605
20	0xbe12d001	-0.1433716
21	0x3e84a3be	0.25906175
22	0xbd7d5302	-0.06184674
23	0x3e1cbbf2	0.1530607
24	0xbe155e0e	-0.1458666
25	0x3eea7a6e	0.4579653
26	0xbf18cea8	-0.5969033
27	0x3b6aaf3e	0.003581002
28	0xbf078184	-0.52932
29	0xbd6caeeb	-0.057784002
30	0x3d1fe81a	0.03903971
31	0xbc7697fa	-0.0150508825
32	0x3c646e94	0.0139423795
33	0xbf56fab0	-0.8397627
34	0x3cba39df	0.022732673
35	0xbcf85bf4	-0.030317284
36	0x3e60eed8	0.21966112
37	0x3e084258	0.13306558
38	0x3d549f27	0.051909592
39	0xbefe024a	-0.4961112
40	0x3e1f3f78	0.15551555
41	0xbe9ecbad	-0.31014767
42	0xbd39db14	-0.045374945
43	0x3eaba944	0.33527577
44	0xbc0b0439	-0.0084848935
45	0x3ad55b37	0.0016277794
46	0x3e50c6c0	0.20388317
47	0x3da5eb51	0.08101524
48	0xbccc86a0	-0.024966538
49	0x3d20e3b3	0.03927965
50	0xbe8fe2e5	-0.28102794
51	0xbd503946	-0.05083587
52	0xbf235ffd	-0.6381834
53	0xbbaf703a	-0.0053539546
54	0x3eb908e7	0.36139604
55	0xbe2ec6e0	-0.17068052
56	0xbdc7eec1	-0.097623356
57	0xbe4f0026	-0.202149
58	0xbd2b8946	-0.04187896
59	0x3d6ef80d	0.05834203
60	0xbc8c99fc	-0.01716327
61	0x3e3d015e	0.18457553
62	0x3a5fb6d5	0.0008534019
63	0xbf2687cc	-0.6505096
64	0x3e0bb61b	0.13643686
65	0x3e4a3069	0.1974503
66	0x3d06a70f	0.032874163
67	0xbd4f849b	-0.05066357
68	0x3c0a6177	0.008446089
69	0x3e9c7d10	0.30564165
70	0x3ea3adf1	0.31968644
71	0xbe5d9666	-0.21639404
72	0xbe3b9b98	-0.18321073
73	0x3ca47954	0.020077385
74	0x3cb76335	0.022386173
75	0xbc6417b7	-0.01392167
76	0x3dab96ab	0.08378347
77	0xbd6c0eae	-0.057631187
78	0xbe35627d	-0.17713352
79	0x3e248c51	0.16069151
80	0xbd8f57ec	-0.06999192
81	0x3deb4d9e	0.11489414
82	0x3c238ce8	0.009982325
83	0x3e86119e	0.26185316
84	0x3e939e3f	0.2883167
85	0xbd21ac74	-0.039471105
86	0x3d34733b	0.044055205
87	0x3d40f950	0.047112763
88	0x3e71c0e5	0.2360874
89	0xbc7767e7	-0.015100456
90	0xbdfcf335	-0.123510756
91	0x3e913de1	0.28367522
92	0xbd0b2e1f	-0.03397953
93	0x3da33141	0.07968379
94	0xbd64b0a3	-0.055832516
95	0xbe5c48a6	-0.21512088
96	0x3dce2497	0.10065573
97	0x3e634fba	0.22198382
98	0xbc756e98	-0.014979981
99	0xbdbf52ee	-0.093419895
100	0xbe1c783a	-0.15280238
101	0xbd8f64c9	-0.07001645
102	0x3e94c3a8	0.29055524
103	0x3e8076c8	0.25090623
104	0x3e7044e1	0.23463775
105	0x3e64d854	0.22348148
106	0x3e99efa9	0.3006566
107	0x3ca62d2c	0.020285212
108	0xbec89ab8	-0.3918054
109	0x3e026e44	0.12737375
110	0xbd2e9a48	-0.042627603
111	0x3e8afc3b	0.27145562
112	0xbd1a150f	-0.03761774
113	0xbc2c675b	-0.010522689
114	0x3d8668f3	0.06562986
115	0x3eae31fa	0.34022504
116	0x3c19ef8a	0.0093954895
117	0xbe8741e1	-0.2641745
118	0x3e709e86	0.23497972
119	0x3e023ac7	0.12717734
120	0x3e63ffea	0.22265592
121	0x3e36fa06	0.17868814
122	0x3ca669ac	0.02031406
123	0xbcbe2d53	-0.023214972
124	0xbdf120bb	-0.11773821
125	0xbedc2047	-0.42993376
126	0xbf39fb06	-0.72648656
127	0xbe10dfa0	-0.14147806
128	0x3d094936	0.033517085
129	0x3e5511fb	0.2080764
130	0xbdd7078f	-0.104994886
131	0xbdb4b7fa	-0.08824153
132	0xbebd1a86	-0.36934298
133	0xbd3f5837	-0.046714988
134	0xbf1bd097	-0.6086516
135	0xbdea523c	-0.11441466
136	0x3f000d98	0.5002074
137	0xbd874486	-0.06604867
138	0x3d00f9a0	0.03148806
139	0xbe0a2b45	-0.13493069
140	0x3eb213bd	0.34780684
141	0xbdbcb7fc	-0.0921478
142	0xbc3102a7	-0.010803855
143	0xbdb6fb74	-0.089346796
144	0xbe0b7384	-0.13618284
145	0xbdd02c4b	-0.10164698
146	0xbde5e20e	-0.11224757
147	0xbd5004ea	-0.050785936
148	0x3df8354e	0.12119542
149	0x3b00fc93	0.0019681796
150	0xbe94e972	-0.29084355
151	0xbeb54b7b	-0.3540915
152	0xbea1ccfb	-0.316017
153	0x3d47d706	0.048789047
154	0x3e274fc5	0.16339023
155	0x3e907581	0.28214648
156	0x3c8f1de3	0.017470306
157	0x3dbb92d0	0.09158862
158	0xbd8074b1	-0.06272257
159	0xbe5cf736	-0.21578678
160	0xbeeacf93	-0.45861492
161	0x3cb8272d	0.022479618
162	0x3e59c37b	0.21265976
163	0x3db0dc62	0.08635785
164	0x3d033ce4	0.03204049
165	0x3d3f361d	0.046682466
166	0xbd9501b7	-0.07275718
167	0xbc2ca3fd	-0.010537145
168	0xbc278da5	-0.010226642
169	0xbe15ea56	-0.14640173
170	0xbe580e14	-0.2109912
171	0x3d877619	0.06614322
172	0x3eea57d0	0.4577012
173	0x3b2884cc	0.0025713919
174	0x3e84de0b	0.25950655
175	0x3ebda661	0.37041
176	0xbe102bf2	-0.14079264
177	0xbe55f2d6	-0.20893416
178	0x3dfa56a7	0.12223559
179	0x3e2bf1f6	0.1679152
180	0xbd9947f1	-0.07484425
181	0xbda7e2f9	-0.081975885
182	0x3e48bbb1	0.19602849
183	0x3e56de1b	0.20983164
184	0xbde8395b	-0.11339065
185	0x3e635cf3	0.22203426
186	0x3ca000c6	0.019531619
187	0xbe9342df	-0.28761956
188	0x3ed83513	0.42227992
189	0xbe188331	-0.14893796
190	0x3e63f6b2	0.22262076
191	0x3b273dfa	0.0025519119
192	0xbe932ffd	-0.2874755
193	0x3e8abe73	0.27098426
194	0x3c5f2fd6	0.013622245
195	0xbeb9dcc9	-0.36301258
196	0x3e92060c	0.28520238
197	0x3e7da18a	0.24768654
198	0x3c353ac2	0.011061372
199	0x3e88684b	0.2664207
200	0xbeabe914	-0.33576262
201	0x3e229eef	0.15880941
202	0x3d158c32	0.036510654
203	0xbddc5dfe	-0.10760115
204	0x3c325a97	0.010885856
205	0x3d3e73f7	0.04649731
206	0x3d1d9ecf	0.03848153
207	0x3e21b5a7	0.15791951
208	0x3df2b9a4	0.118518144
209	0x3e42eea4	0.19036347
210	0xbf278544	-0.6543772
211	0xbd97ea34	-0.074177176
212	0x3da49e41	0.08037997
213	0x3d820ea0	0.06350446
214	0x3b84e4b0	0.004055582
215	0x3e7e7d22	0.24852422
216	0xbe1f9dbd	-0.15587516
217	0x3d3eda76	0.04659506
218	0x3e30b2a1	0.17255642
219	0xbdd0bb8f	-0.10192024
220	0x3c75f728	0.01501254
221	0xbec880ec	-0.3916086
222	0x3da709ae	0.08156143
223	0xbc992bf3	-0.018697714
224	0xbe331d7c	-0.17491716
225	0x3dac81cc	0.08423194
226	0x3ebf4de8	0.37364125
227	0x3cf07012	0.029350314
228	0x3e87979a	0.2648285
229	0xbe598378	-0.21241558
230	0xbea2973b	-0.31756005
231	0x3d7b0b62	0.061290152
232	0xbbd5b56e	-0.0065218722
233	0x3e39d453	0.18147402
234	0xbe4a6aab	-0.19767253
235	0x3e2b8e73	0.16753559
236	0x3ca54e8c	0.020179056
237	0xbd256578	-0.04037997
238	0x3e946cc3	0.2898923
239	0xbcbc9301	-0.023019316
240	0xbe3be106	-0.18347558
241	0xbd93c694	-0.0721561
242	0xbe046fa3	-0.12933211
243	0x3da16841	0.07881213
244	0xbe159241	-0.14606573
245	0x3ca6d092	0.020363126
246	0x3d783e06	0.060606025
247	0xbeea59b3	-0.4577156
248	0x3df5b005	0.11996464
249	0x3ddf17bf	0.10893201
250	0xbcc742f1	-0.024323912
251	0x3ba6cc99	0.005090308
252	0xbe2cb5fe	-0.168663
253	0x3d9242a4	0.07141617
254	0xbee77412	-0.45205742
255	0x3ddd19b3	0.10795917

linear2.bias f4 [3]
0	0x3c0777f2	0.008268343
1	0x3e9c09ba	0.3047617
2	0x3d4d29e9	0.050088797
